model.pth (torch, 172340 bytes, 5 tensors)

lstm.weight_ih_l0 f4 [400, 4]
0	0x3e86d56c	0.26334703
1	0x3e822d68	0.25425267
2	0x3e3d181f	0.18466233
3	0x3e9eaa8e	0.30989498
4	0x3cebfd7c	0.028807394
5	0xbbb090f2	-0.0053883726
6	0x3d9a632d	0.075384475
7	0xbc7d7109	-0.015468844
8	0xbe00b3b7	-0.12568556
9	0xbd95654c	-0.072947115
10	0xbdb85134	-0.08999863
11	0x3d64949e	0.055805795
12	0x3ede0beb	0.43368468
13	0x3f10ec37	0.56610435
14	0x3eeb95bc	0.46012676
15	0x3f10f98c	0.5663078
16	0x3e4255a3	0.1897798
17	0x3e48a20a	0.19593063
18	0x3e1f8824	0.15579277
19	0x3e512d6f	0.20427488
20	0x3eb03b3d	0.34420195
21	0x3e665ba9	0.22495903
22	0x3e8e9d56	0.27854413
23	0x3ebf1f81	0.37328723
24	0x3e62618d	0.22107525
25	0x3e4725dc	0.19448036
26	0x3e3f8a3a	0.18705073
27	0x3e4acdc5	0.19805057
28	0xbe8ae541	-0.27128032
29	0xbe953070	-0.29138517
30	0xbe73530b	-0.23762147
31	0xbe8617b0	-0.26189947
32	0x3ea09bf6	0.3136899
33	0x3eafd3c6	0.34341258
34	0x3ed92ae1	0.42415527
35	0x3ee4d699	0.44694975
36	0xbf618b33	-0.88103026
37	0xbf3294d1	-0.69758326
38	0xbf43b2fc	-0.76444983
39	0xbf3a60c2	-0.7280389
40	0x3ec46284	0.3835641
41	0x3ed134ef	0.40860698
42	0x3ecd952a	0.40152866
43	0x3e8464be	0.2585811
44	0x3b05d885	0.0020423245
45	0xbe39806f	-0.181154
46	0xbd9ce043	-0.07659962
47	0xbdad06f9	-0.084485956
48	0x3ebb50b6	0.36585015
49	0x3eead5c7	0.45866224
50	0x3ed5abfc	0.41732776
51	0x3eaa0ef3	0.3321453
52	0xbe6bbf35	-0.23022158
53	0xbeba1db2	-0.3635078
54	0xbe9c38e6	-0.3051216
55	0xbeb05262	-0.34437853
56	0xbe47b708	-0.19503415
57	0xbce19c6b	-0.027540406
58	0xbdc81627	-0.0976985
59	0xbe311eba	-0.17296878
60	0xbd8005bd	-0.062510945
61	0xbd6a5806	-0.057212852
62	0x3dde04a9	0.108407326
63	0x3b04f11e	0.0020285319
64	0x3ef908f9	0.48639658
65	0x3ec8ce7a	0.3922003
66	0x3ee19f25	0.4406673
67	0x3eef52d5	0.46742883
68	0xbcaf81c2	-0.021424178
69	0xbceeec9d	-0.02916556
70	0x3d90fe46	0.07079749
71	0x3dc4f658	0.09617299
72	0x3e93ef33	0.28893432
73	0x3ebccf45	0.36876884
74	0x3e95826a	0.2920106
75	0x3e722544	0.23647028
76	0xbdf0a8a9	-0.11750919
77	0xbbd212a1	-0.006410912
78	0xbdb101cd	-0.086429216
79	0xbdee50f0	-0.11636531
80	0xbe269038	-0.16265953
81	0xbe1add2e	-0.15123436
82	0xbd5cbfa4	-0.0538937
83	0xbdf60925	-0.12013463
84	0xbec6a61c	-0.38798606
85	0xbe86c2c9	-0.26320484
86	0xbeb6647b	-0.35623536
87	0xbebe71f3	-0.3719631
88	0x3d985430	0.074379325
89	0x3e71ada1	0.2360139
90	0x3e7d80d1	0.24756171
91	0x3db3c620	0.08778024
92	0x3e0453a2	0.12922528
93	0x3e17f082	0.1483784
94	0x3e0cbaa2	0.1374307
95	0x3de0662d	0.109569885
96	0x3c6913e9	0.014225938
97	0x3d2e1b97	0.04250678
98	0x398e2a1d	0.00027115727
99	0xbe089148	-0.1333667
100	0x3f082429	0.53180176
101	0x3f07dc6b	0.53070706
102	0x3eb8bfb9	0.36083773
103	0x3effd426	0.49966544
104	0xbdd8a8e1	-0.10579086
105	0xbe15fe1b	-0.14647715
106	0xbd9a3508	-0.07529646
107	0xbde2306e	-0.110443935
108	0x3e8b2eb4	0.2718407
109	0x3ea05f44	0.31322682
110	0x3ec87079	0.3914831
111	0x3e90ee9f	0.28307053
112	0x3e76ff05	0.2412072
113	0x3e2dd702	0.1697655
114	0x3e3c5294	0.18390876
115	0x3de95dbf	0.11394834
116	0xbef5d6c2	-0.4801541
117	0xbeb2300f	-0.3480229
118	0xbea08e40	-0.31358528
119	0xbe858f72	-0.26086003
120	0xbe0eaa8a	-0.13932243
121	0x3cb38436	0.021913629
122	0xbd347c0b	-0.04406361
123	0xbc21b150	-0.009868935
124	0x3f4b0b4c	0.7931411
125	0x3f2f3ff1	0.6845694
126	0x3f264982	0.64955914
127	0x3f28401b	0.6572282
128	0x3ed77235	0.4207932
129	0x3efbd97a	0.4918936
130	0x3ed0f664	0.4081298
131	0x3f0c9ec9	0.54929787
132	0x3f075005	0.52856475
133	0x3ed351bf	0.41273305
134	0x3f0389e3	0.51382273
135	0x3ec336de	0.38127798
136	0xbf279e2d	-0.6547573
137	0xbf0251b8	-0.5090594
138	0xbf00a870	-0.50257015
139	0xbf1bdb6a	-0.60881674
140	0x3e589dc3	0.21153931
141	0x3e479ae9	0.19492687
142	0x3de1fe41	0.11034823
143	0x3e5f0334	0.21778566
144	0x3e2b1a42	0.16709235
145	0x3e76abea	0.24089018
146	0x3e15a954	0.14615375
147	0x3e9666d7	0.29375336
148	0x3e56bcc0	0.2097044
149	0x3e5a2de0	0.21306562
150	0x3e34192f	0.17587732
151	0x3e638fc6	0.22222814
152	0x3edca232	0.43092495
153	0x3f10e2a7	0.56595844
154	0x3eabcd6a	0.33555156
155	0x3f04b730	0.5184202
156	0x3ec52b14	0.38509429
157	0x3ec1495d	0.37751284
158	0x3e86d64b	0.26335368
159	0x3e709116	0.23492846
160	0x3eb306c7	0.34966108
161	0x3e905a53	0.28193912
162	0x3ed11f0c	0.40844
163	0x3eb11dd2	0.34593064
164	0x3d6a7878	0.057243794
165	0xbdd73eee	-0.1051005
166	0xbcdf92a8	-0.02729161
167	0x3cd163d3	0.025560295
168	0x3ec8971c	0.39177787
169	0x3ea74824	0.32672226
170	0x3e8c3c14	0.27389586
171	0x3ec8ae46	0.3919546
172	0x3cd67e5c	0.0261833
173	0x3e568ae7	0.20951425
174	0x3e2c51e9	0.16828121
175	0x3e09e65b	0.1346678
176	0xbf42a28c	-0.76029277
177	0xbf4d37f7	-0.8016352
178	0xbf386e2e	-0.7204312
179	0xbf3b6170	-0.7319555
180	0x3f005a5b	0.5013787
181	0x3eb72564	0.35770714
182	0x3edf77e1	0.43646148
183	0x3eaa2da9	0.3323796
184	0xbe84dc13	-0.25949153
185	0xbed364ea	-0.4128793
186	0xbed06b31	-0.4070678
187	0xbe8fc0de	-0.28076833
188	0xbe8e91c1	-0.27845576
189	0xbeaa201c	-0.33227623
190	0xbeb31497	-0.34976646
191	0xbe930aab	-0.28719077
192	0x3de610a1	0.112336405
193	0x3e4e8e09	0.2017137
194	0x3e8cdd4d	0.2751259
195	0x3e9b7172	0.3035999
196	0x3ebab9a9	0.36469772
197	0x3eaa1daa	0.33225757
198	0x3ec9e6d3	0.39433917
199	0x3ea80b60	0.32821178
200	0x3e9d9a5e	0.30781835
201	0x3e5b44ce	0.21412966
202	0x3eb9a475	0.36258283
203	0x3eaa3a2a	0.332475
204	0x3f0de908	0.554337
205	0x3ec3ca4e	0.38240284
206	0x3edb0d77	0.4278371
207	0x3ef3c80f	0.4761357
208	0xbdc439ec	-0.0958136
209	0xbe3bd831	-0.18344189
210	0xbc3af7a3	-0.01141158
211	0xbd9c593a	-0.07634206
212	0x3e8f8f19	0.28038862
213	0x3e972366	0.29519194
214	0x3e88b8aa	0.26703387
215	0x3eb3f312	0.35146385
216	0xbc4c001b	-0.012451197
217	0xbe138330	-0.14405513
218	0xbe00361a	-0.12520638
219	0xbd6fe88b	-0.05857138
220	0xbcf7f4fd	-0.030268187
221	0x3bae5500	0.0053201914
222	0xbe03cecd	-0.12871857
223	0xbe0676ee	-0.13131306
224	0x3ec63024	0.38708603
225	0x3e954c81	0.2915993
226	0x3ee8e9c8	0.4549086
227	0x3ed41486	0.41421908
228	0x3ed0cd57	0.40781662
229	0x3eed6d7a	0.46372586
230	0x3ee4e1e6	0.44703597
231	0x3f04dd8d	0.5190056
232	0xbe950f65	-0.29113308
233	0xbe4fc0d8	-0.20288408
234	0xbe8f334c	-0.27968824
235	0xbe0a0736	-0.13479313
236	0x3ed69095	0.41907182
237	0x3ef539d3	0.4789568
238	0x3eed1b1d	0.46309748
239	0x3edf8492	0.4365583
240	0xbe9dac48	-0.30795503
241	0xbec7826b	-0.3896669
242	0xbea0efbc	-0.31432903
243	0xbee76b4e	-0.45199054
244	0x3efc0556	0.4922282
245	0x3ecf69d0	0.40510416
246	0x3f0522f7	0.5200648
247	0x3f0de364	0.55425096
248	0x3e7934e5	0.24336584
249	0x3e8325f0	0.25614882
250	0x3e1bf225	0.1522909
251	0x3e91705d	0.2840604
252	0x3e9a7e4d	0.30174485
253	0x3ea8face	0.3300385
254	0x3e5cdd1c	0.21568722
255	0x3ebdd740	0.37078285

lstm.weight_hh_l0 f4 [400, 100]
0	0x3dd356ea	0.10319312
1	0xbe1bf855	-0.1523145
2	0x3dfdb3aa	0.12387784
3	0x3e2a2fbf	0.16619776
4	0xbd89fd46	-0.06737761
5	0xbf02f6db	-0.5115792
6	0x3f15891e	0.5841235
7	0x3df306b2	0.118665114
8	0x3db9cf57	0.0907275
9	0x3f045d76	0.5170511
10	0x3e3550d2	0.17706612
11	0x3dd8cb0e	0.105856046
12	0x3e0899b3	0.13339882
13	0x3e82e01d	0.2556161
14	0x3d0882be	0.03332781
15	0x3cc59d2d	0.024122799
16	0xbe46554b	-0.19368474
17	0xbb9d862f	-0.0048072557
18	0xbde4bdc0	-0.111690044
19	0xbcb11b1e	-0.021619376
20	0xc004ac88	-2.0730305
21	0xbc522799	-0.012826824
22	0xbd88d447	-0.06681114
23	0x3ffb7fa2	1.9648325
24	0xbf0bfcee	-0.54682815
25	0x3e6d656b	0.23183219
26	0x3e867cc5	0.26267067
27	0xbe80ec70	-0.25180387
28	0xbe5a2244	-0.21302134
29	0x3fec5e5a	1.8466294
30	0xbd5c732e	-0.05382078
31	0x3e28b97c	0.16477007
32	0xbf84bab3	-1.0369476
33	0x3f2932a0	0.6609287
34	0xbe7eb298	-0.24872816
35	0x3e87c706	0.2651903
36	0xbe3aff9e	-0.18261573
37	0x3e3f2d6d	0.18669672
38	0x3f53d511	0.8274699
39	0xbdcd63da	-0.10028811
40	0xbe414280	-0.18873024
41	0x3d1f5086	0.038895153
42	0xbe142499	-0.14467086
43	0xbe8d7081	-0.27624896
44	0x3f0e8ebf	0.55686563
45	0x3e298aa0	0.16556787
46	0x3eacd073	0.33752784
47	0x3ea2af6f	0.3177447
48	0x3f53d69e	0.82749355
49	0xbd33de7c	-0.04391335
50	0xbf888452	-1.0665381
51	0x3f5a4153	0.85255927
52	0xbe5adb3e	-0.21372697
53	0xbecd3ecd	-0.40086976
54	0x3e4858be	0.19565102
55	0x3c941880	0.018078089
56	0x3d41d3e2	0.047321208
57	0xbd85fc87	-0.065423064
58	0x3cd89992	0.026440416
59	0xbe053e72	-0.13012102
60	0xbe428b16	-0.1899837
61	0x3e48c4ef	0.19606374
62	0x3ffbc315	1.9668909
63	0x3e42111c	0.18951839
64	0xbd7b08ef	-0.061287817
65	0xbdd3f67e	-0.10349749
66	0x3d381391	0.044940535
67	0xbe9e724b	-0.30946574
68	0x3c98b761	0.01864213
69	0x3c6c187a	0.014410133
70	0xbd47560d	-0.04866605
71	0xbc2a9b90	-0.010413066
72	0xbd5f74ec	-0.054554865
73	0xbced896a	-0.028996188
74	0x3d48d880	0.049034595
75	0xbf0fbb37	-0.5614504
76	0xbdb904ca	-0.090341166
77	0x3f8d601f	1.1044959
78	0xbdc16cc5	-0.09444574
79	0x3d4c822d	0.049928833
80	0x3caa8707	0.02081634
81	0xbe8bb510	-0.27286577
82	0xbfed2af5	-1.8528734
83	0xbf240d52	-0.64082825
84	0xbdab3ecd	-0.08361588
85	0x3e55b7c9	0.2087089
86	0xbe266181	-0.16248132
87	0xbe063c4e	-0.13108942
88	0x3f61b179	0.88161427
89	0x3e0c88fa	0.13724127
90	0xbe35e4ae	-0.17763016
91	0x3d0cd95e	0.034386985
92	0x3dc7de67	0.09759217
93	0xbe187178	-0.14887035
94	0xbfefc07d	-1.8730618
95	0x3e80c4be	0.25150102
96	0xbf503543	-0.8133127
97	0xbeb0fca3	-0.34567747
98	0x3e17dade	0.14829585
99	0x3dd1f941	0.102526195
100	0x3eeec810	0.4663701
101	0x3f37af81	0.7175217
102	0xbe4383f2	-0.19093302
103	0xbf7b828c	-0.98246074
104	0x3e8c576d	0.2741045
105	0x3ecd350e	0.4007954
106	0x3e9b60fc	0.3034743
107	0xbd088417	-0.033329096
108	0x3ee54748	0.44780946
109	0xbcc98acb	-0.024602314
110	0x3ea31c7a	0.31857663
111	0xbdab0f51	-0.08352531
112	0xbc84ec93	-0.016226089
113	0xbec835be	-0.39103502
114	0x3c9f57ad	0.019450987
115	0x3e45cfe7	0.1931759
116	0x3f327965	0.69716483
117	0x3e19b83b	0.15011685
118	0xbebe35a5	-0.37150303
119	0xbd07a360	-0.03311479
120	0xbf74c07c	-0.9560621
121	0xbeabbb00	-0.33541107
122	0x3ea14389	0.31496838
123	0x3f6728b6	0.90296495
124	0xbe3385b2	-0.1753147
125	0xbe9933cd	-0.29922333
126	0xbee19c0c	-0.44064367
127	0x3f06eede	0.5270823
128	0x3eed0a0a	0.46296722
129	0x3f529ba2	0.82268727
130	0x3e493377	0.19648539
131	0xbedb0846	-0.4277975
132	0xbf5317c7	-0.82458156
133	0x3ee082c5	0.4384977
134	0x3e1f560d	0.1556017
135	0xbe659940	-0.22421741
136	0x3f2d5d64	0.6772063
137	0x3d5be66d	0.053686548
138	0xbdd9cc31	-0.106346495
139	0xbe6fa7ce	-0.23403856
140	0x3ea3130a	0.31850463
141	0xbe1c88ad	-0.15286513
142	0xbefbd697	-0.49187157
143	0x3e65befe	0.22436139
144	0xbe260c43	-0.16215615
145	0x3d9ea855	0.077469505
146	0xbe12129b	-0.1426491
147	0xbeaeca73	-0.34138831
148	0x3f4c54a0	0.7981663
149	0xbec23308	-0.3792956
150	0xbf1aa00f	-0.6040048
151	0x3d2e63bc	0.042575583
152	0x3aaa0b01	0.001297325
153	0x3ea9b5b3	0.33146438
154	0xbe9d737f	-0.3075218
155	0xbeb034ab	-0.34415182
156	0xbe45ca6e	-0.19315502
157	0x3f6f4587	0.93465465
158	0xbd8fd0d5	-0.070222534
159	0x3db03a04	0.086048156
160	0x3e48cdab	0.19609706
161	0x3f15c795	0.58507663
162	0x3f765cb9	0.96235234
163	0x3e29d447	0.16584884
164	0xbef1fa59	-0.47261313
165	0xbe1cb45d	-0.15303178
166	0x3d38a59f	0.045079824
167	0x3e93353f	0.2875156
168	0xbe4f21a1	-0.20227672
169	0xbe3b8401	-0.18312074
170	0xbeefeb88	-0.46859384
171	0xbf16f1b0	-0.58962536
172	0x3e561eb1	0.20910145
173	0xbc8b8a32	-0.01703367
174	0xbd99bc2c	-0.07506594
175	0xbe35d0de	-0.17755458
176	0x3ec3a127	0.38208887
177	0x3f3f51bf	0.7473411
178	0x3d788e5a	0.060682632
179	0xbebad73a	-0.3649233
180	0xbd23e27d	-0.040010918
181	0x3e271e85	0.16320236
182	0xbf7ce861	-0.9879208
183	0xbf7c6cc2	-0.9860345
184	0x3ab33064	0.0013671038
185	0xbd0dfe07	-0.034666087
186	0x3e9198da	0.2843693
187	0x3da127b2	0.078688994
188	0x3f3d13ea	0.7385851
189	0x3e934b44	0.2876836
190	0xbeb1bf64	-0.34716332
191	0x3efea07c	0.49731815
192	0xbe1f046f	-0.15529035
193	0x3e1f8fc0	0.1558218
194	0xbf66f4c5	-0.9021724
195	0xbe991773	-0.29900703
196	0xbf81221b	-1.0088533
197	0x3dff6348	0.12470108
198	0xbf4325de	-0.76229656
199	0xbef51ff8	-0.47875953
200	0xbd515935	-0.051110465
201	0xbe4a7c43	-0.19773965
202	0x3e941f81	0.28930286
203	0x3dba7dfd	0.091060616
204	0xbe8816c8	-0.2657988
205	0xbe54f71f	-0.20797394
206	0x3ecc88c7	0.39948103
207	0x3e50511a	0.20343438
208	0x3dc8514b	0.097811304
209	0x3eb4f76d	0.3534502
210	0xbe04a7ee	-0.12954685
211	0xbcbcb1db	-0.023034027
212	0x3c4a388d	0.012342584
213	0xbcd308ae	-0.025760975
214	0xbd9b9a25	-0.0759776
215	0xbeb4a33f	-0.35280797
216	0x3e8cec1b	0.27523884
217	0xbe35f0f3	-0.17767696
218	0x3e80ffa5	0.2519504
219	0xbcabb0d9	-0.020958351
220	0xbf9dd22f	-1.2329768
221	0x3dcaa3cf	0.09894525
222	0xbda945b2	-0.082652465
223	0x3f86c4f2	1.0528853
224	0xbef932bd	-0.48671523
225	0xbc2d4dd9	-0.010577642
226	0xbd27c0ce	-0.040955357
227	0xbd1f94ba	-0.038960196
228	0x3e41e050	0.18933225
229	0x3f8b965e	1.0905263
230	0xbd713308	-0.058886558
231	0xbdbd85e3	-0.092540525
232	0xbf2e9066	-0.68189085
233	0x3efb3ae6	0.49068373
234	0xbdabb339	-0.083837934
235	0x3e35c27c	0.17749971
236	0x3e8272c1	0.25478175
237	0x3d31f982	0.04345084
238	0x3f3024a7	0.6880593
239	0xbd237426	-0.03990569
240	0xbe520e90	-0.20513368
241	0x3d1717e4	0.03688802
242	0xbdba5890	-0.09098923
243	0xbeb19976	-0.34687394
244	0x3ed8d0a9	0.42346695
245	0x3dd74fab	0.10513242
246	0x3e2c20f6	0.16809449
247	0x3dcbb195	0.099459805
248	0x3f2eccd6	0.68281305
249	0x3cce2bc2	0.02516735
250	0xbf1f7504	-0.62287927
251	0x3f2fea8f	0.68717283
252	0xbe67ee4b	-0.22649495
253	0xbd741a54	-0.05959542
254	0x3dc34121	0.09533907
255	0xbd91f70c	-0.071271986

lstm.bias_ih_l0 f4 [400]
0	0xbf8519e2	-1.0398524
1	0xbefab232	-0.48964077
2	0xbfc15b3c	-1.5105968
3	0xbf7d10d5	-0.9885381
4	0xbf66c664	-0.9014647
5	0xbf88ec05	-1.0697027
6	0xbe9b35d0	-0.30314493
7	0xbf9efbc4	-1.2420583
8	0xbf72dd0b	-0.94868535
9	0xbf88be4d	-1.0683075
10	0xbf8ce3d8	-1.1007032
11	0xbfb4fa53	-1.4138893
12	0xbfad8933	-1.3557495
13	0xbf6be676	-0.9214853
14	0xbfbe9ce2	-1.4891627
15	0xbfb4f55d	-1.4137379
16	0xbf460474	-0.77350545
17	0xbfcc1e48	-1.5946741
18	0xbf6d79e2	-0.92764103
19	0xbfca48bc	-1.5803447
20	0x3f640ee1	0.89085203
21	0xbf0f2694	-0.5591824
22	0xbf8f14a3	-1.1178173
23	0x3de17477	0.11008542
24	0xbf88e309	-1.0694286
25	0xbf5f7876	-0.87293184
26	0xbf5a1834	-0.8519318
27	0xbf87b356	-1.0601604
28	0xbfc7a27a	-1.5596459
29	0x3f3b0d55	0.7306722
30	0xbfb461ee	-1.4092386
31	0xbf8e6754	-1.1125283
32	0x3d35b8e1	0.044365767
33	0xbeb5a9c7	-0.35481092
34	0xbf36ba83	-0.71378344
35	0xbf677cdb	-0.9042489
36	0xbf63d1b6	-0.8899187
37	0x3ce66918	0.028126284
38	0xbe8a3988	-0.26997018
39	0xbf74e62b	-0.9566371
40	0xbf8a0683	-1.0783237
41	0xbfcb33d2	-1.5875189
42	0xbf8c06c4	-1.0939565
43	0xbfa49ae3	-1.2859768
44	0xbf8f072e	-1.1174066
45	0xbfb7c622	-1.435734
46	0xbf37260b	-0.71542424
47	0xbf3ed4b7	-0.7454333
48	0xbef24534	-0.47318423
49	0xbf86236b	-1.0479559
50	0xbf3eee46	-0.74582326
51	0xbe12f46f	-0.14351057
52	0xbfa89a15	-1.3172022
53	0xbf80b959	-1.0056564
54	0xbfa578fa	-1.2927544
55	0xbf94ce3e	-1.162544
56	0xbf9a4e20	-1.2055092
57	0xbf612287	-0.8794331
58	0xbf8b8ff7	-1.090331
59	0xbf8350b2	-1.0259001
60	0xbf1befc4	-0.6091273
61	0xbf432df7	-0.7624201
62	0x3e41cbb4	0.18925363
63	0xbf8bab25	-1.0911604
64	0xbf565b5c	-0.83733153
65	0xbfc752cd	-1.5572144
66	0xbf7f8afa	-0.99821436
67	0xbf2c3162	-0.6726285
68	0xbf966419	-1.1749297
69	0xbf7b8b6c	-0.98259616
70	0xbf7f0744	-0.9962046
71	0xbf4faba0	-0.81121254
72	0xbf9c27cf	-1.2199649
73	0xbfced03d	-1.6157299
74	0xbfb4441e	-1.4083288
75	0xbf8cc8df	-1.0998801
76	0xbf9bc2d7	-1.2168835
77	0xbf02db6e	-0.51116073
78	0xbfd770bc	-1.6831279
79	0xbf7e3dbd	-0.99312955
80	0xbfb8fb7c	-1.4451747
81	0xbfa1d3ab	-1.2642721
82	0x3f6b209b	0.91846627
83	0x3f3c58ce	0.73573005
84	0xbf8651be	-1.0493696
85	0xbf9f4f64	-1.2446103
86	0xbf442d93	-0.7663204
87	0xbf8fec90	-1.1244068
88	0xbdecf4f9	-0.11570162
89	0xbf8c728e	-1.0972459
90	0xbf68e060	-0.9096737
91	0xbf7fc6ba	-0.9991261
92	0xbfbe7738	-1.4880133
93	0xbfc1fa87	-1.515458
94	0x3ee573ff	0.4481506
95	0xbed063bd	-0.40701094
96	0xbc3a26e0	-0.011361808
97	0xbf7c8ca7	-0.9865212
98	0xbf5987e3	-0.8497297
99	0xbf63ca19	-0.8898025
100	0xbf90c2db	-1.1309465
101	0xbf80b8e5	-1.0056425
102	0xbf510567	-0.8164887
103	0xbfade2b8	-1.3584814
104	0xbf038cec	-0.51386905
105	0xbf83b24d	-1.0288788
106	0xbf004db7	-0.50118583
107	0xbf5685b1	-0.83797747
108	0xbeca2ad3	-0.39485797
109	0xbf860158	-1.046916
110	0xbf83a3d4	-1.0284371
111	0xbf6a96ea	-0.91636527
112	0xbf51b839	-0.81921726
113	0xbf067dc0	-0.5253563
114	0xbf569ce5	-0.8383315
115	0xbf81b886	-1.0134437
116	0xbf90a88c	-1.1301436
117	0xbf51bf90	-0.81932926
118	0xbf804fbe	-1.0024335
119	0xbf2f3d12	-0.6845256
120	0x3f0f8a8e	0.5607079
121	0xbf4a0565	-0.7891448
122	0xbf4dd477	-0.8040232
123	0x3f2d6f58	0.6774802
124	0xbef3a8a3	-0.47589597
125	0xbfa6725e	-1.3003652
126	0xbf959a14	-1.1687646
127	0xbf918135	-1.1367556
128	0xbf53524e	-0.8254746
129	0xbd7bfdfc	-0.061521515
130	0xbf45ce18	-0.772676
131	0xbfc74ab6	-1.5569675
132	0xbef91b36	-0.48653573
133	0xbe86c57f	-0.26322553
134	0xbfa9f697	-1.3278378
135	0xbf5eb69a	-0.8699738
136	0xbf9487d1	-1.1603948
137	0xbf38f95d	-0.722555
138	0xbea92e74	-0.33043253
139	0xbf80efe4	-1.0073209
140	0xbe695a86	-0.22788438
141	0xbf76769a	-0.9627472
142	0xbf4fdbfb	-0.8119504
143	0xbf6015ba	-0.8753315
144	0xbf796705	-0.9742282
145	0xbf1b8de3	-0.60763377
146	0xbf09d264	-0.53836656
147	0xbf37de55	-0.71823627
148	0xbea0250c	-0.31278265
149	0xbf8752a7	-1.0572098
150	0xbee6539e	-0.4498567
151	0xbea2b23c	-0.31776607
152	0xbf5aa822	-0.854128
153	0xbf856c3f	-1.0423659
154	0xbf28df79	-0.6596599
155	0xbf797b44	-0.97453713
156	0xbf341c43	-0.70355624
157	0xbf92d62e	-1.1471612
158	0xbf3a01c9	-0.72658974
159	0xbf2d0f98	-0.6760192
160	0xbf6231e3	-0.8835737
161	0xbf8c9915	-1.0984217
162	0x3f272747	0.6529431
163	0xbf321326	-0.6956047
164	0xbf5dbba7	-0.8661446
165	0xbf568d94	-0.8380978
166	0xbf94531d	-1.1587864
167	0xbf8887e4	-1.066647
168	0xbf36b3f2	-0.71368325
169	0xbf3ae905	-0.7301181
170	0xbfa58f07	-1.2934273
171	0xbf86e550	-1.0538731
172	0xbf66b55b	-0.90120476
173	0xbf414fd1	-0.75512415
174	0xbf78a807	-0.9713139
175	0xbf14fc35	-0.5819734
176	0xbf570d2f	-0.8400449
177	0xbec37ecc	-0.38182676
178	0xbf5b08af	-0.85560125
179	0xbf56eed8	-0.83958197
180	0xbf57b99d	-0.842676
181	0xbf7053a2	-0.93877614
182	0xbe0fa097	-0.14026104
183	0xbe0e73a7	-0.13911305
184	0xbf4ffaaa	-0.8124186
185	0xbf5a50e8	-0.85279703
186	0xbf5b94c4	-0.85773873
187	0xbf451d4e	-0.7699784
188	0xbebb2eeb	-0.36559233
189	0xbf379790	-0.7171564
190	0xbf5ad26b	-0.8547732
191	0xbf8685f8	-1.0509634
192	0xbf4095fc	-0.7522886
193	0xbf3bacb8	-0.7331042
194	0x3f1f4e44	0.622288
195	0xbf0635a4	-0.524256
196	0xbe966b78	-0.29378867
197	0xbf293c98	-0.66108084
198	0xbf8766bb	-1.0578226
199	0xbf86d73a	-1.0534432
200	0x3e756547	0.23964415
201	0x3e0e29d5	0.13883145
202	0xbe748207	-0.23877726
203	0x3e28a6f3	0.16469936
204	0x3e8467b3	0.25860366
205	0x3cda8d1f	0.02667862
206	0x3e96b09d	0.2943162
207	0xbe40a799	-0.18813933
208	0x3dc52862	0.09626843
209	0xbdf445e8	-0.11927396
210	0x3e6b6dc1	0.22991087
211	0x3d9d3d2b	0.076776825
212	0xbecd0cba	-0.40048772
213	0xbe42fc4e	-0.19041559
214	0x3dff8672	0.12476815
215	0x3e9f9fc9	0.31176594
216	0xbe87d251	-0.26527646
217	0x3e591904	0.21200949
218	0xbe63e98e	-0.22257063
219	0x3e353072	0.17694262
220	0x3f127b47	0.57219356
221	0x3e005758	0.12533319
222	0x3f0795bd	0.5296286
223	0xbf336906	-0.7008213
224	0xbec23c2d	-0.37936535
225	0x3e8228e8	0.25421834
226	0x3dcea502	0.100900665
227	0xbdf19119	-0.11795253
228	0xbe0c10f7	-0.13678347
229	0xbf87901f	-1.0590857
230	0x3e921758	0.28533435
231	0xbc38f5b3	-0.011289048
232	0x3eac007f	0.33594128
233	0x3e6ccf32	0.23125914
234	0xbdabff88	-0.08398348
235	0xbee4c142	-0.44678694
236	0x3d9563d2	0.0729443
237	0x3da0e6af	0.078564994
238	0xbe7cb7ee	-0.24679539
239	0xbdf99d97	-0.12188261
240	0x3eb5f826	0.35540885
241	0xbdfe6712	-0.12422003
242	0xbde73ccc	-0.11290893
243	0x3e5c4296	0.21509776
244	0xbe8a2610	-0.26982164
245	0xbe013237	-0.12616812
246	0xbedcce3e	-0.431261
247	0xbe726e52	-0.23674896
248	0x3e94b3bb	0.29043373
249	0xbd8cc0b8	-0.06872696
250	0xbe6811e1	-0.2266307
251	0xbe9ce88f	-0.30646178
252	0x3e3df362	0.18549874
253	0xbe132cf8	-0.14372623
254	0xbe8f2fde	-0.27966207
255	0xbe23ccd0	-0.15996099

lstm.bias_hh_l0 f4 [400]
0	0xbf70b830	-0.9403105
1	0xbf06884d	-0.5255173
2	0xbfc968f2	-1.5735152
3	0xbf6a33b0	-0.9148512
4	0xbf777636	-0.9666475
5	0xbf81f53c	-1.0152965
6	0xbe9d6de2	-0.30747896
7	0xbf9b00a0	-1.2109566
8	0xbf769775	-0.96324855
9	0xbf91b81c	-1.1384311
10	0xbf82ad8d	-1.0209213
11	0xbfa2802d	-1.2695366
12	0xbfa26847	-1.2688073
13	0xbf7d91c2	-0.99050534
14	0xbfb98872	-1.4494765
15	0xbfcd4a3d	-1.6038281
16	0xbf54b84a	-0.830937
17	0xbfc19996	-1.5124996
18	0xbf66372e	-0.8992795
19	0xbfbc2cb8	-1.4701147
20	0x3f5cc739	0.8624149
21	0xbf206a5c	-0.6266229
22	0xbf8bedad	-1.0931908
23	0x3e14fa16	0.14548525
24	0xbf8c1117	-1.0942715
25	0xbf52ea70	-0.82388973
26	0xbf56e4a5	-0.83942634
27	0xbf784f5d	-0.969961
28	0xbfbc5a20	-1.4715004
29	0x3f208025	0.62695533
30	0xbfa19768	-1.262433
31	0xbf958d2c	-1.1683707
32	0xbc8e6b6b	-0.017385205
33	0xbe87404d	-0.26416245
34	0xbf0b34c3	-0.54377383
35	0xbf75a913	-0.9596111
36	0xbf662f32	-0.89915764
37	0xbd3f15db	-0.046651702
38	0xbe2aa10f	-0.16663001
39	0xbf7b20c3	-0.98096865
40	0xbf988c26	-1.191777
41	0xbfbeb738	-1.4899664
42	0xbf821f12	-1.0165732
43	0xbfa8d436	-1.3189762
44	0xbf8f526e	-1.119703
45	0xbfb5b2fc	-1.4195247
46	0xbf415025	-0.75512916
47	0xbf5d0ecd	-0.8635071
48	0xbf0426e7	-0.5162186
49	0xbf8d10b2	-1.102072
50	0xbf2231f4	-0.6335747
51	0xbd328434	-0.04358311
52	0xbfb2229d	-1.3916813
53	0xbf65194b	-0.8949172
54	0xbfa1c1b5	-1.263724
55	0xbf8c6887	-1.0969399
56	0xbf993ff0	-1.1972637
57	0xbf54fbd1	-0.8319674
58	0xbf8a7a25	-1.0818526
59	0xbf887c4f	-1.0662936
60	0xbf1994c0	-0.599926
61	0xbf540345	-0.8281749
62	0x3e49fa8e	0.19724485
63	0xbf9338fe	-1.1501768
64	0xbf738e28	-0.9513879
65	0xbfc8a0c9	-1.5674068
66	0xbf815e18	-1.010684
67	0xbf5208b0	-0.82044506
68	0xbf8bd28f	-1.0923632
69	0xbf8a2c62	-1.0794795
70	0xbf7f6211	-0.9975901
71	0xbf6f174e	-0.93394935
72	0xbfa89257	-1.3169659
73	0xbfc06a25	-1.5032393
74	0xbf9b534c	-1.2134795
75	0xbf81effc	-1.0151362
76	0xbf92fec3	-1.1483997
77	0xbee60629	-0.44926575
78	0xbfca88f4	-1.5823045
79	0xbf5dc0f0	-0.86622524
80	0xbfa8bcce	-1.3182619
81	0xbf951a14	-1.1648583
82	0x3f8a56cf	1.0807742
83	0x3f3bdcfa	0.7338406
84	0xbf7c1bcf	-0.9847993
85	0xbfa0ef1a	-1.2572968
86	0xbf4d69a7	-0.8023934
87	0xbfa134a9	-1.2594196
88	0xbe055aa9	-0.13022865
89	0xbf8d2bad	-1.1028954
90	0xbf74ec55	-0.95673114
91	0xbf87176f	-1.0554026
92	0xbfcdcef0	-1.6078777
93	0xbfc22215	-1.5166651
94	0x3ec7f82f	0.39056537
95	0xbea72d83	-0.3265191
96	0xbbb2342a	-0.0054383473
97	0xbf87bb6e	-1.0604074
98	0xbf7aca16	-0.9796461
99	0xbf654fbc	-0.8957479
100	0xbf878bb4	-1.0589509
101	0xbf6f4aa3	-0.9347326
102	0xbf4bbbdf	-0.79583544
103	0xbfa809f5	-1.3128039
104	0xbf22673e	-0.63438785
105	0xbf87273a	-1.0558846
106	0xbee413af	-0.44546267
107	0xbf286e7d	-0.6579359
108	0xbed193d5	-0.409331
109	0xbf870f0a	-1.0551465
110	0xbf5bcf0d	-0.8586281
111	0xbf7af71c	-0.9803331
112	0xbf580467	-0.8438172
113	0xbf1e2e2c	-0.617892
114	0xbf52410f	-0.8213052
115	0xbf828162	-1.0195735
116	0xbf8d7506	-1.1051338
117	0xbf5fdbca	-0.87444746
118	0xbf8483c0	-1.0352707
119	0xbf307fde	-0.6894511
120	0x3f0e9b8a	0.55706084
121	0xbf221ad3	-0.6332218
122	0xbf7bb759	-0.9832664
123	0x3f1850f2	0.5949851
124	0xbf084e03	-0.53244036
125	0xbfb0f42f	-1.3824519
126	0xbf86ae56	-1.0521953
127	0xbf949575	-1.1608111
128	0xbf5347b2	-0.82531273
129	0xbdcc8b9f	-0.09987568
130	0xbf49d6ca	-0.7884337
131	0xbfc98d9a	-1.5746338
132	0xbeabddd6	-0.33567685
133	0xbec90a1f	-0.39265534
134	0xbfabcb9d	-1.3421513
135	0xbf47753a	-0.7791325
136	0xbf94f463	-1.1637081
137	0xbf361369	-0.7112337
138	0xbea3e70c	-0.32012212
139	0xbf841d8b	-1.0321516
140	0xbea2db59	-0.31807974
141	0xbf60997c	-0.877342
142	0xbf55aad3	-0.8346378
143	0xbf4ced6c	-0.8004978
144	0xbf7baf4b	-0.9831435
145	0xbf322ad3	-0.69596595
146	0xbf0df565	-0.5545257
147	0xbf27a5d1	-0.6548739
148	0xbed7b4d2	-0.42130142
149	0xbf8308f7	-1.0237111
150	0xbec57aca	-0.38570243
151	0xbeb52108	-0.35376763
152	0xbf59308a	-0.8483969
153	0xbf7d7294	-0.9900296
154	0xbf51afb6	-0.8190874
155	0xbf771f9a	-0.96532595
156	0xbf381cdd	-0.7191904
157	0xbf95b450	-1.1695652
158	0xbf3336d7	-0.70005554
159	0xbf21381a	-0.6297623
160	0xbf85f7a1	-1.0466195
161	0xbf9d23e9	-1.2276584
162	0x3f148621	0.58017164
163	0xbf3cba64	-0.7372191
164	0xbf660cc9	-0.8986326
165	0xbf5b01de	-0.85549724
166	0xbf950824	-1.1643109
167	0xbf99bc18	-1.2010527
168	0xbf293a14	-0.66104245
169	0xbf49b987	-0.7879872
170	0xbf97ecbe	-1.1869123
171	0xbf877ed1	-1.0585576
172	0xbf66799b	-0.90029305
173	0xbf5084ca	-0.8145262
174	0xbf621091	-0.8830653
175	0xbf08307f	-0.53199
176	0xbf4bd009	-0.7961431
177	0xbecd2bc2	-0.40072447
178	0xbf3f8a11	-0.7482005
179	0xbf476bec	-0.7789905
180	0xbf54ff95	-0.8320249
181	0xbf700994	-0.93764615
182	0xbe21e942	-0.15811637
183	0xbe835eeb	-0.25658354
184	0xbf417ec2	-0.7558404
185	0xbf6b7a66	-0.9198364
186	0xbf5f61aa	-0.872584
187	0xbf487d7e	-0.78316486
188	0xbee37b2d	-0.44429913
189	0xbf3b8777	-0.7325358
190	0xbf6bf501	-0.9217072
191	0xbf702648	-0.9380841
192	0xbf47a6d4	-0.77988935
193	0xbf2ce5c8	-0.6753812
194	0x3f2924a4	0.66071534
195	0xbefc961a	-0.49333268
196	0xbeb17636	-0.346605
197	0xbefff870	-0.4999423
198	0xbf852839	-1.04029
199	0xbf698ff4	-0.9123528
200	0x3e82d7ec	0.2555536
201	0xbca20b28	-0.01978071
202	0xbe5b03af	-0.21388124
203	0x3d833ab6	0.064076826
204	0x3edff6ff	0.4374313
205	0xbe1a4f7a	-0.1506938
206	0x3e866077	0.26245472
207	0xbd9a1c75	-0.07524959
208	0x3e6ce69c	0.23134845
209	0xbe04ee10	-0.12981439
210	0x3e87fdf8	0.2656095
211	0xbdc8edc8	-0.09810978
212	0xbee91c93	-0.45529613
213	0xbdf6a360	-0.1204288
214	0xbacab4de	-0.001546528
215	0x3e345ff2	0.17614725
216	0xbdf1e89b	-0.11811944
217	0x3e221e80	0.15831947
218	0xbe3b42b0	-0.18287158
219	0x3d0984b5	0.033573825
220	0x3f285075	0.6574777
221	0x3d96db49	0.07366044
222	0x3ebbbbaa	0.36666614
223	0xbf4c1520	-0.79719734
224	0xbeadcb4b	-0.33944163
225	0x3e9c4908	0.30524468
226	0x3db6a03e	0.089172825
227	0xbdd7837d	-0.10523126
228	0xbd95afeb	-0.07308944
229	0xbf862146	-1.0478904
230	0x3ed7bcfa	0.42136365
231	0xbc33da7c	-0.010977384
232	0x3ea5fb97	0.3241851
233	0x3e27d278	0.16388881
234	0xbe2dac6a	-0.16960302
235	0xbef81158	-0.48450732
236	0x3dbe3c87	0.092888884
237	0xbd7f553b	-0.06233714
238	0xbe89bc7c	-0.26901615
239	0xbe4f67e4	-0.20254475
240	0x3eb763f6	0.35818452
241	0xbe59444c	-0.2121746
242	0xbe008f9a	-0.1255478
243	0x3e85ac91	0.2610822
244	0xbe4ba8a6	-0.19888553
245	0xbe4cc78a	-0.19997993
246	0xbea8e16a	-0.32984477
247	0xbe172e83	-0.14763837
248	0x3eaa342d	0.33242932
249	0x3d983c76	0.07433407
250	0xbe9c02aa	-0.30470783
251	0xbeb9e40b	-0.36306795
252	0x3e5c99eb	0.2154309
253	0xbde8694b	-0.11348208
254	0xbe0de700	-0.13857651
255	0xbd4d2594	-0.050084665

linear.weight f4 [1, 100]
0	0xbd928d65	-0.07155875
1	0x3d8c0d3c	0.06838462
2	0xbe213180	-0.15741539
3	0xbeacf7ed	-0.33782902
4	0x3e7e7df4	0.24852735
5	0x3d881285	0.06644157
6	0x3d394a18	0.045236677
7	0xbd82c107	-0.06384473
8	0xbd71784a	-0.058952607
9	0xbd3b163c	-0.0456755
10	0x3e7e9d10	0.24864602
11	0xbd694c20	-0.056957364
12	0x3cc5c5b4	0.024142124
13	0xbbccb119	-0.0062466976
14	0xbc69bfcb	-0.014266918
15	0x3e9d3f4d	0.30712357
16	0x3ea3a028	0.31958127
17	0x3e4ea338	0.2017945
18	0xbe3816a0	-0.17977381
19	0x3d43db4e	0.047816567
20	0xbe945415	-0.289704
21	0x3ab1effd	0.001357555
22	0x3e8479e7	0.25874254
23	0x3e7db2c6	0.24775228
24	0xbc91ad56	-0.017782848
25	0xbe981f15	-0.29711214
26	0xbdff98e8	-0.124803364
27	0x3d2c3213	0.042039942
28	0x3e4d8149	0.2006885
29	0x3e9079b9	0.28217867
30	0x3e64e926	0.22354564
31	0xbd4590ea	-0.048233904
32	0x3e912fa3	0.28356656
33	0xbea3e8d2	-0.32013565
34	0x3e3afd35	0.18260653
35	0xbe3d4fe6	-0.1848751
36	0x3e19501a	0.14971963
37	0xbbd28881	-0.006424964
38	0xbeafcf16	-0.34337682
39	0xbe8752ad	-0.26430264
40	0x3e0c5f9d	0.13708349
41	0xbe33f8ee	-0.17575428
42	0xbe86a2ba	-0.26296026
43	0x3e0565df	0.13027142
44	0xbd7493be	-0.05971121
45	0x3cdccf2c	0.026954256
46	0xbcf8b32e	-0.030358877
47	0xbe36e93d	-0.17862411
48	0xbe54e6d7	-0.20791183
49	0xbe9cbb03	-0.3061143
50	0x3d70bb24	0.05877222
51	0xbeaed83e	-0.34149355
52	0x3e26f0ec	0.16302842
53	0xbe7708be	-0.24124429
54	0xbd436379	-0.047702286
55	0xbe05c4c1	-0.13063337
56	0xbd4a3c31	-0.04937381
57	0x3e9b87e8	0.30377126
58	0xbd277c0b	-0.04088978
59	0x3ca3cfcf	0.019996552
60	0x3d6a7e75	0.057249505
61	0xbeaa28c1	-0.33234218
62	0x3e965c37	0.2936723
63	0x3df8dc72	0.121514216
64	0x3b6fdbe7	0.0036599578
65	0x3c6efb18	0.014586233
66	0xbdc9ede4	-0.09859827
67	0x3caf502e	0.021400537
68	0xbd4fb3d2	-0.0507086
69	0xbe748151	-0.23877455
70	0x3d982cd1	0.07430423
71	0xbe619d88	-0.2203275
72	0x3e2abe28	0.16674101
73	0xbd07835e	-0.033084266
74	0xbe4a2746	-0.19741544
75	0xb925116b	-0.00015742115
76	0x3e9c7760	0.30559826
77	0xbe52edb4	-0.20598489
78	0x3d4352ad	0.047686268
79	0xbdcb39f9	-0.09923167
80	0xbe7c6549	-0.24648012
81	0x3e49c709	0.19704832
82	0xbe96455d	-0.29349795
83	0x3d5f9fe2	0.054595836
84	0xbe27f1ee	-0.16400883
85	0x3de9776d	0.11399732
86	0x3e273245	0.1632777
87	0x3e96a17b	0.29420075
88	0xbe9bce72	-0.30430943
89	0x3d395014	0.045242384
90	0xbec2a982	-0.3801995
91	0x3d8a66c3	0.067578815
92	0xbd3b71c6	-0.0457628
93	0x3c9bac6e	0.01900312
94	0xbe904b6c	-0.28182542
95	0x3c771628	0.015080966
96	0x3e939c63	0.2883025
97	0xbdd14bac	-0.102195114
98	0xbe795418	-0.24348485
99	0xbc9ae553	-0.018908178
